…
2024-11-30 13:05:04.013511: I tensorflow/core/platform/cpu_feature_guard.cc:193] This TensorFlow binary is optimized with oneAPI Deep Neural Network Library (oneDNN) to use the following CPU instructions in performance-critical operations:  AVX2
To enable them in other operations, rebuild TensorFlow with the appropriate compiler flags.
2024-11-30 13:05:04.019088: I tensorflow/core/common_runtime/process_util.cc:146] Creating new thread pool with default inter op setting: 2. Tune using inter_op_parallelism_threads for best performance.
Model: "sequential"
_________________________________________________________________
 Layer (type)                Output Shape              Param #   
=================================================================
 conv1d (Conv1D)             (None, 23, 64)            256       
                                                                 
 batch_normalization (BatchN  (None, 23, 64)           256       
 ormalization)                                                   
                                                                 
 max_pooling1d (MaxPooling1D  (None, 11, 64)           0         
 )                                                               
                                                                 
 lstm (LSTM)                 (None, 64)                33024     
                                                                 
 dropout (Dropout)           (None, 64)                0         
                                                                 
 dense (Dense)               (None, 50)                3250      
                                                                 
 dense_1 (Dense)             (None, 1)                 51        
                                                                 
=================================================================
Total params: 36,837
Trainable params: 36,709
Non-trainable params: 128
_________________________________________________________________
Epoch 1/10

  1/123 [..............................] - ETA: 10:08 - loss: 0.5598 - mae: 0.6464 - root_mean_squared_error: 0.7482
…
2024-11-30 13:01:59.403968: I tensorflow/core/platform/cpu_feature_guard.cc:193] This TensorFlow binary is optimized with oneAPI Deep Neural Network Library (oneDNN) to use the following CPU instructions in performance-critical operations:  AVX2
To enable them in other operations, rebuild TensorFlow with the appropriate compiler flags.
2024-11-30 13:01:59.406368: I tensorflow/core/common_runtime/process_util.cc:146] Creating new thread pool with default inter op setting: 2. Tune using inter_op_parallelism_threads for best performance.
Model: "sequential"
_________________________________________________________________
 Layer (type)                Output Shape              Param #   
=================================================================
 conv1d (Conv1D)             (None, 23, 32)            512       
                                                                 
 batch_normalization (BatchN  (None, 23, 32)           128       
 ormalization)                                                   
                                                                 
 max_pooling1d (MaxPooling1D  (None, 11, 32)           0         
 )                                                               
                                                                 
 lstm (LSTM)                 (None, 64)                24832     
                                                                 
 dropout (Dropout)           (None, 64)                0         
                                                                 
 flatten (Flatten)           (None, 64)                0         
                                                                 
 dense (Dense)               (None, 50)                3250      
                                                                 
 dropout_1 (Dropout)         (None, 50)                0         
                                                                 
 dense_1 (Dense)             (None, 1)                 51        
                                                                 
=================================================================
Total params: 28,773
Trainable params: 28,709
Non-trainable params: 64
_________________________________________________________________
Epoch 1/10

 1/28 [>.............................] - ETA: 3:04 - loss: 0.3507 - mae: 0.5359 - root_mean_squared_error: 0.5922
…
