…
NaN in X_test: False
Infinity in X_test: False
NaN in y_test: False
Infinity in y_test: False
Min y_test: 0.8050145503682778 Max y_test: 0.8143351056313467
2024-11-20 20:06:30.125004: I tensorflow/core/common_runtime/process_util.cc:146] Creating new thread pool with default inter op setting: 2. Tune using inter_op_parallelism_threads for best performance.
Model: "sequential"
_________________________________________________________________
 Layer (type)                Output Shape              Param #   
=================================================================
 conv1d (Conv1D)             (None, 13, 32)            992       
                                                                 
 batch_normalization (BatchN  (None, 13, 32)           128       
 ormalization)                                                   
                                                                 
 max_pooling1d (MaxPooling1D  (None, 6, 32)            0         
 )                                                               
                                                                 
 lstm (LSTM)                 (None, 64)                24832     
                                                                 
 dropout (Dropout)           (None, 64)                0         
                                                                 
 flatten (Flatten)           (None, 64)                0         
                                                                 
 dense (Dense)               (None, 50)                3250      
                                                                 
 dropout_1 (Dropout)         (None, 50)                0         
                                                                 
 dense_1 (Dense)             (None, 1)                 51        
                                                                 
=================================================================
Total params: 29,253
Trainable params: 29,189
Non-trainable params: 64
_________________________________________________________________
Epoch 1/20

 1/19 [>.............................] - ETA: 1:40 - loss: 0.3141 - mae: 0.5318
 5/19 [======>.......................] - ETA: 0s - loss: 0.1906 - mae: 0.3937  
…
NaN in X_test: False
Infinity in X_test: False
NaN in y_test: False
Infinity in y_test: False
Min y_test: 0.9594187875023529 Max y_test: 1.0233577128189046
2024-11-20 20:38:48.449805: I tensorflow/core/common_runtime/process_util.cc:146] Creating new thread pool with default inter op setting: 2. Tune using inter_op_parallelism_threads for best performance.
Model: "sequential"
_________________________________________________________________
 Layer (type)                Output Shape              Param #   
=================================================================
 conv1d (Conv1D)             (None, 3, 32)             512       
                                                                 
 batch_normalization (BatchN  (None, 3, 32)            128       
 ormalization)                                                   
                                                                 
 max_pooling1d (MaxPooling1D  (None, 1, 32)            0         
 )                                                               
                                                                 
 dropout (Dropout)           (None, 1, 32)             0         
                                                                 
 flatten (Flatten)           (None, 32)                0         
                                                                 
 dense (Dense)               (None, 50)                1650      
                                                                 
 dropout_1 (Dropout)         (None, 50)                0         
                                                                 
 dense_1 (Dense)             (None, 1)                 51        
                                                                 
=================================================================
Total params: 2,341
Trainable params: 2,277
Non-trainable params: 64
_________________________________________________________________
Epoch 1/10

  1/137 [..............................] - ETA: 5:04 - loss: 0.2916 - mae: 0.3992 - root_mean_squared_error: 0.5400
…
